recommendation_model.tflite (tflite, 301460 bytes, 7 tensors)

model_1/embedding_3/embedding_lookup f4 [9, 10]
0	0xbd7266c0	-0.05918002
1	0x3f38b664	0.72153306
2	0x3f2019f5	0.6253961
3	0x3f2b7471	0.6697455
4	0x3e2161b5	0.15759929
5	0x3f28b6f4	0.65904164
6	0xbf1cae5f	-0.6120357
7	0xbf33e7ec	-0.7027576
8	0x3d90ec3f	0.0707631
9	0x3f4796b7	0.7796435
10	0xbc310681	-0.010804773
11	0x3f3be801	0.73400885
12	0x3f318f90	0.69359684
13	0x3f3f1276	0.74637544
14	0x3db0e958	0.08638257
15	0x3f257e8c	0.6464622
16	0xbf393aca	-0.7235533
17	0xbf0be06e	-0.5463933
18	0x3e4292ad	0.19001265
19	0x3f4b15e6	0.7933029
20	0xbdeda5d6	-0.11603896
21	0x3f385b25	0.72014076
22	0x3f3a6bb7	0.7282061
23	0x3f3464bd	0.70466214
24	0xbe213aaf	-0.15745042
25	0x3f2d9ac7	0.67814296
26	0xbf36b950	-0.71376514
27	0xbf0cdab1	-0.55021197
28	0x3e67cce5	0.22636755
29	0x3f4dc51d	0.80378896
30	0x3e1de5c6	0.15419683
31	0x3f23d6e5	0.6399978
32	0x3f29271d	0.6607531
33	0x3f4aee93	0.79270285
34	0xbd08a305	-0.033358593
35	0x3f32f62b	0.6990687
36	0xbf3b58dc	-0.73182464
37	0xbf350739	-0.70714146
38	0xbc9b1eb1	-0.018935533
39	0x3f3092b0	0.6897383
40	0x3dcff22a	0.10153611
41	0x3f24f8d3	0.64442176
42	0x3f2c3134	0.6726258
43	0x3f31bc95	0.6942838
44	0x3e34bfd4	0.17651302
45	0x3f3b1df4	0.7309258
46	0xbf2af41b	-0.66778725
47	0xbf32df04	-0.69871545
48	0x3ea671d5	0.32508722
49	0x3f3fedc5	0.7497218
50	0x3d8a6cd7	0.06759041
51	0x3f2fce1c	0.6867387
52	0x3f2a3ec5	0.6650203
53	0x3f37653c	0.71638846
54	0x3e481f3e	0.19543168
55	0x3f20a51a	0.62751925
56	0xbf3581c8	-0.70901155
57	0xbf3a841a	-0.7285782
58	0xbc1be002	-0.009513857
59	0x3f3f094f	0.7462358
60	0xbca25a8a	-0.019818563
61	0x3f27095a	0.65248644
62	0x3f3c151e	0.7346972
63	0x3f4ba50d	0.7954872
64	0xbe35bd0c	-0.17747897
65	0x3f3dcaf8	0.7413783
66	0xbf2a9e99	-0.6664825
67	0xbf049369	-0.5178743
68	0x3e369066	0.17828521
69	0x3f4da1e0	0.80325127
70	0xbd8d0798	-0.06886214
71	0x3f214d27	0.6300835
72	0x3f2a1963	0.6644499
73	0x3f7cf5b7	0.9881243
74	0xbe4d8850	-0.2007153
75	0x3f31f812	0.6951915
76	0xbf26457a	-0.6494976
77	0xbf226da0	-0.63448524
78	0x3e901e79	0.2814825
79	0x3f35bc44	0.70990396
80	0xbda17ff2	-0.07885732
81	0x3f31f465	0.6951354
82	0x3f2c676e	0.6734532
83	0x3f2adf5a	0.6674706
84	0x3e55141d	0.20808454
85	0x3f358ee0	0.70921135
86	0xbf35cd60	-0.710165
87	0xbf362ef5	-0.711654
88	0x3cdaa312	0.026689086
89	0x3f307395	0.68926364

model_1/embedding_2/embedding_lookup f4 [7196, 10]
0	0xbdf7a1a4	-0.120913774
1	0x3aeb8b48	0.0017970586
2	0xbcd4e56e	-0.025988307
3	0x3e095627	0.13411771
4	0x3d8524bd	0.06501148
5	0x3bb77db3	0.0055997013
6	0xbb9e15f0	-0.0048243925
7	0x3cedd820	0.02903372
8	0xbe94e90c	-0.2908405
9	0xbd4c46d6	-0.049872242
10	0xbec9cec6	-0.39415568
11	0x3edd4a18	0.43220592
12	0xbf15252f	-0.5825986
13	0xbe1589c4	-0.14603335
14	0x3e140bd9	0.14457645
15	0x3d341fcc	0.043975636
16	0xbcb9b7dd	-0.02267068
17	0x3ee2f1ee	0.44325203
18	0x3e5a5563	0.21321635
19	0x3e8ab95f	0.27094552
20	0x3db683cc	0.08911857
21	0xbd9f2968	-0.077715695
22	0x3e48dcb3	0.1961544
23	0x3ccb40d6	0.02481119
24	0x3e3c2e29	0.18376984
25	0xbe4ce483	-0.20009045
26	0xbe8e0434	-0.27737582
27	0xbd0d71af	-0.034532245
28	0xbe55e639	-0.20888604
29	0xbe860583	-0.2617608
30	0xbcd55709	-0.026042478
31	0x3e0bd9f1	0.13657357
32	0xbe1b8148	-0.15186036
33	0xbd1d81b9	-0.03845379
34	0xbdde47e2	-0.10853554
35	0x3e29e95e	0.16592929
36	0x3ddd4e75	0.1080598
37	0x3e54b65d	0.20772691
38	0x3e2bf308	0.16791928
39	0x3e2f272e	0.1710479
40	0xbdbaff7c	-0.09130761
41	0x3dfb1ca5	0.12261323
42	0xbe2c07c1	-0.16799833
43	0x3d2b1da2	0.041776307
44	0xbc971335	-0.018441776
45	0x3bdfd128	0.0068303533
46	0x3d99ce10	0.075100064
47	0xbccea2f9	-0.025224196
48	0x3e3cdea0	0.184443
49	0xbea1da89	-0.31612042
50	0xbcb5b587	-0.022181286
51	0x3bd11d30	0.0063816532
52	0xbcd61de7	-0.026137305
53	0xbae35f40	-0.0017347112
54	0xbd332a1a	-0.043741323
55	0x3d38bc21	0.04510129
56	0x3d1cdb29	0.038294945
57	0x3c3f164c	0.011663031
58	0xbc480018	-0.012207054
59	0x3cd15ae6	0.025556039
60	0xbdd6d67d	-0.10490129
61	0x3e23f5c2	0.16011718
62	0xbdfb33b8	-0.12265724
63	0xbe11a071	-0.1422136
64	0xbd8f92cf	-0.070104234
65	0x3e2e6afc	0.17032999
66	0x3e4fa1e1	0.20276596
67	0x3e865284	0.2623483
68	0x3df0fc6c	0.11766896
69	0x3da4659d	0.08027194
70	0xbcf7881d	-0.030216271
71	0xbe03762a	-0.12838045
72	0xbe74d365	-0.23908766
73	0x39753867	0.00023386032
74	0xbda4b0bf	-0.08041524
75	0xbd1ebb0e	-0.038752608
76	0xbdc8edd8	-0.0981099
77	0xbd67f370	-0.056628644
78	0x3d3921f9	0.045198414
79	0x3c84a0b7	0.016189916
80	0xbd00d15a	-0.031449653
81	0xbca7e2ba	-0.020493854
82	0xbd091a64	-0.033472434
83	0xbcde7480	-0.02715516
84	0xbc897f8c	-0.016784452
85	0x3cfc8246	0.030823838
86	0x3cbd30fa	0.023094643
87	0x3ccc298e	0.024922159
88	0xbd140fc0	-0.036147833
89	0x3ae3b600	0.0017372966
90	0x3ef5183c	0.47870052
91	0xbeed8fee	-0.46398872
92	0x3ed5eccb	0.4178222
93	0x3dfb603a	0.12274213
94	0x3ee6b1bf	0.45057485
95	0xbecb851b	-0.3974999
96	0xbed4e43a	-0.41580373
97	0xbec9f9a7	-0.39448282
98	0xbe2b4291	-0.16724612
99	0xbef94361	-0.4868422
100	0x3e39416e	0.18091366
101	0x3c8a3d06	0.016874801
102	0xbdf88b35	-0.12135927
103	0xbe35890f	-0.17728065
104	0xbe3046e3	-0.17214541
105	0x3e19dde3	0.1502605
106	0x3e406536	0.18788609
107	0x3e5f67c2	0.21816924
108	0xbdba396a	-0.09092982
109	0x3d3ff712	0.046866484
110	0x3e540a49	0.20707048
111	0xbe82613b	-0.25464806
112	0x3e58cade	0.21171138
113	0x3e8b9fad	0.2727026
114	0x3ea7044d	0.3262047
115	0xbe977c37	-0.29586956
116	0xbe7cb6eb	-0.24679153
117	0xbe94a9e8	-0.29035878
118	0xbe429155	-0.19000752
119	0xbeab8350	-0.3349862
120	0x3e4fe317	0.20301472
121	0xbc946725	-0.01811559
122	0x3e38e06b	0.18054359
123	0x3e8a6f36	0.27037972
124	0x3ddcb830	0.107773185
125	0xbd532016	-0.05154427
126	0xbe1f9e0a	-0.15587631
127	0xbcde0390	-0.027101308
128	0xbe4f658c	-0.20253581
129	0xbe27b682	-0.16378215
130	0xbc7b74ac	-0.015347641
131	0xbdf82327	-0.1211608
132	0xbe1f11b7	-0.15534101
133	0xbca92f84	-0.02065254
134	0xbdf20d6e	-0.11818968
135	0x3db6a4ec	0.08918175
136	0x3d11dd30	0.03561133
137	0x3e8e89e5	0.2783958
138	0x3eb5814c	0.35450208
139	0x3e5106b7	0.20412718
140	0x3de2ec40	0.11080217
141	0x3dd40a22	0.10353495
142	0xbe1f4a74	-0.15555745
143	0xbdfec4f1	-0.12439907
144	0x3c7a83d2	0.0152902175
145	0xbda24671	-0.07923592
146	0xbd8ce8c7	-0.06880336
147	0xbd872c1e	-0.066002116
148	0xbe4937fc	-0.19650263
149	0x3ce49916	0.027905028
150	0xbea5d0e3	-0.3238593
151	0x3ecd9a50	0.40156794
152	0xbeac03c7	-0.33596632
153	0xbe07caa5	-0.13260897
154	0xbebd3e5e	-0.36961645
155	0x3ec448c0	0.38336754
156	0x3e91f439	0.2850664
157	0x3eb866df	0.36015984
158	0xb996be5a	-0.00028752052
159	0x3eaea2c4	0.34108555
160	0xbea4de92	-0.32201058
161	0x3cb14487	0.021639122
162	0xbe132a9c	-0.14371723
163	0x3ccd2b79	0.025045143
164	0xbe242ec3	-0.16033463
165	0x3e6bd9dd	0.23032327
166	0x3d62600a	0.05526737
167	0x3db59d39	0.088678785
168	0xbdd28f74	-0.10281268
169	0x3deb057d	0.11475656
170	0x3a3241f0	0.00067999866
171	0xbc7c1c3c	-0.015387591
172	0xbe02aac7	-0.12760459
173	0x3d547bfb	0.05187605
174	0x3e6c1e4d	0.23058434
175	0x3da3d6d7	0.07999962
176	0xbdd5f23c	-0.10446593
177	0xbe05fc10	-0.13084435
178	0x3d52092e	0.051278286
179	0xbd890301	-0.06690026
180	0xbe09965c	-0.13436264
181	0x3cb2a170	0.021805495
182	0x3cc94c65	0.02457256
183	0x3a847e60	0.0010108463
184	0xbdd53439	-0.10410351
185	0x3e9518d0	0.29120493
186	0x3e46e233	0.19422226
187	0xbe5c51a5	-0.2151552
188	0x3e1f6887	0.15567218
189	0xbd9313e8	-0.07181531
190	0x3e8ea4d1	0.2786012
191	0xbe11c530	-0.14235377
192	0x3e975563	0.29557332
193	0x3e705e2a	0.2347342
194	0x3ed852ad	0.42250577
195	0xbee25d0f	-0.44211623
196	0xbe9d5353	-0.30727634
197	0xbe727d02	-0.23680499
198	0xbe8829f7	-0.26594517
199	0xbe90dd3b	-0.28293785
200	0x3ca18ffa	0.019721974
201	0x3cd572da	0.026055742
202	0x3cb65c82	0.022260908
203	0x3b9c5168	0.0047704466
204	0xbcf70580	-0.03015399
205	0x3bae3ee8	0.0053175576
206	0x3ccc1006	0.024909984
207	0x3cf26bfa	0.029592503
208	0xbcca4e1a	-0.024695445
209	0x3d01af23	0.031661164
210	0x3ec76775	0.3894612
211	0xbdfd02f3	-0.12354078
212	0x3e75584c	0.23959464
213	0x3e6e1fe8	0.23254359
214	0x3d676671	0.05649418
215	0x3c91749f	0.017755805
216	0x3d92a78a	0.07160862
217	0xbdd957ae	-0.10612427
218	0x3d41cf5c	0.047316894
219	0x3c475b71	0.012167797
220	0xbe2924a3	-0.16517882
221	0x3c35636e	0.011071069
222	0x3d80a9b0	0.06282365
223	0x3cf78ee8	0.03021951
224	0xbe2376fa	-0.15963355
225	0x3e135d4a	0.14391056
226	0x3e4dd9ab	0.20102565
227	0x3e2a17c9	0.16610636
228	0xbdd7b2b8	-0.10532135
229	0x3d30e83a	0.04319022
230	0xbc462307	-0.012093312
231	0x3e07dfd0	0.13268971
232	0x3e32a529	0.17445816
233	0x3d635792	0.055503435
234	0xbe6ff7ba	-0.23434344
235	0x3ce8ffe0	0.028442323
236	0x3eaf8152	0.3427835
237	0xbaa31664	-0.0012442586
238	0x3dcc5594	0.0997726
239	0x3cfa733c	0.030572526
240	0xbc0bae8c	-0.008525502
241	0xbc067518	-0.008206628
242	0x3d47b18d	0.04875331
243	0xbd248a3a	-0.040170886
244	0x3d106997	0.03525695
245	0xbc652434	-0.013985682
246	0xbca04c00	-0.01956749
247	0x3d17bef3	0.037047338
248	0xbc57e258	-0.013176523
249	0x3c46bed8	0.012130462
250	0x3daca78e	0.08430396
251	0xbb8f9241	-0.0043814485
252	0x3c77bb24	0.015120301
253	0xbd3a6d21	-0.04551423
254	0x3df8f47a	0.12156005
255	0xbe4420b1	-0.19153096

model_1/dense_4/BiasAdd/ReadVariableOp f4 [20]
0	0xbf855727	-1.0417222
1	0xbf582bce	-0.8444184
2	0xbe6a03c7	-0.22853003
3	0xbe4eced4	-0.20196086
4	0xbe0d5759	-0.13802852
5	0xbe830489	-0.25589398
6	0x3d1bb019	0.038009737
7	0xbe823c7e	-0.25436777
8	0xbe563e36	-0.20922169
9	0x00000000	0.0
10	0x3e3b4f46	0.18291959
11	0xbeac11f0	-0.33607435
12	0xbec88e3e	-0.39171022
13	0x3bf006ac	0.007325014
14	0xbec60041	-0.3867207
15	0xbe45fa9b	-0.1933388
16	0xbe4691ac	-0.19391507
17	0x3d3617a3	0.044456135
18	0xbe432063	-0.19055323
19	0xbd295efe	-0.041350357

model_1/dense_3/BiasAdd/ReadVariableOp f4 [50]
0	0xbed87b5a	-0.4228161
1	0xbcc3a512	-0.023882423
2	0x00000000	0.0
3	0x00000000	0.0
4	0xbe056191	-0.130255
5	0x3fea44b2	1.8302214
6	0xbfa3e741	-1.2804948
7	0xbe834700	-0.25640106
8	0xbcb1cd5b	-0.021704366
9	0xbe75820c	-0.2397539
10	0xbd955cf2	-0.072931185
11	0x00000000	0.0
12	0x00000000	0.0
13	0x00000000	0.0
14	0xbe5649e2	-0.20926622
15	0x00000000	0.0
16	0xbcee5941	-0.029095294
17	0x00000000	0.0
18	0xbe9c95a3	-0.30582914
19	0xbeaa6365	-0.33278957
20	0xbe274c05	-0.16337593
21	0x00000000	0.0
22	0xbf154638	-0.5831027
23	0xbfeec5e3	-1.865414
24	0xbeb822b5	-0.3596398
25	0xbd7a0c0a	-0.061046638
26	0xbe4e5285	-0.20148666
27	0x00000000	0.0
28	0xbec33c94	-0.38132155
29	0xbe5642b4	-0.20923883
30	0xbd42028a	-0.047365703
31	0xbe406c15	-0.1879123
32	0xbd6262f0	-0.055270135
33	0x00000000	0.0
34	0x4038c946	2.8872848
35	0xbdc5a562	-0.09650685
36	0xbfd177ee	-1.6364725
37	0xbe5a14c3	-0.21296982
38	0xbe00b576	-0.12569222
39	0xbf719fc2	-0.94384396
40	0xbd06e77f	-0.032935616
41	0xbe531925	-0.2061506
42	0x406079ef	3.5074422
43	0xbc6d6ae6	-0.014490819
44	0xbecc4ea7	-0.39903757
45	0xbe0b91b9	-0.13629808
46	0xbc8c0e00	-0.01709652
47	0xbfc64804	-1.5490727
48	0xbdc1a101	-0.09454537
49	0xbeb5524b	-0.35414347

model_1/dense_3/MatMul f4 [50, 26]
0	0x3f0c8a1b	0.5489823
1	0xbe8372b3	-0.25673446
2	0x3f028536	0.50984514
3	0x3e3a730e	0.18207952
4	0x3e966788	0.29375863
5	0xbe559878	-0.20858943
6	0xbec679fa	-0.38764936
7	0xbf0cd1c4	-0.55007577
8	0xbea78f6c	-0.3272661
9	0xbe3c9e14	-0.18419677
10	0xbe2016ab	-0.15633647
11	0xbdafe0da	-0.08587809
12	0xbe36eafe	-0.1786308
13	0xbdfc9a4a	-0.12334116
14	0x3ea2ea1e	0.31819242
15	0xbed9564a	-0.42448646
16	0x3d06abb2	0.032878585
17	0x3eaa9b71	0.33321717
18	0x3e121d66	0.14269027
19	0xbe676995	-0.2259887
20	0xbe87fdca	-0.26560813
21	0xbc9d3ce9	-0.019194083
22	0xbecdc5f3	-0.40190086
23	0xbeea12e7	-0.45717546
24	0xbeed8bb4	-0.46395648
25	0xbf84d809	-1.0378429
26	0x3e0cb575	0.13741095
27	0x3e27ebcd	0.16398545
28	0xbb3d92bb	-0.002892657
29	0x3d6fe8ad	0.058571506
30	0x3dc76a24	0.097370416
31	0xbe8c2541	-0.27372172
32	0x3cd1a375	0.025590638
33	0xbe4428eb	-0.19156234
34	0x3d243554	0.04008992
35	0xbe55740f	-0.20845054
36	0x3e3c1ad6	0.18369612
37	0xbe128df3	-0.14311962
38	0xbe862b0f	-0.26204726
39	0xbdeb3297	-0.114842586
40	0x3e8a2cef	0.26987407
41	0x3e8c9873	0.2746006
42	0x3d887665	0.06663207
43	0x3e87dffa	0.26538068
44	0xbdcd66db	-0.10029384
45	0xbe8c3d7c	-0.2739066
46	0x3d8e50a0	0.06948972
47	0xb9d148bf	-0.00039917786
48	0x3dda8958	0.106707275
49	0xbe968fba	-0.2940653
50	0x3e7eff45	0.24902065
51	0x3e322c7a	0.17399779
52	0x3e036778	0.12832439
53	0xbe0f8f8a	-0.140196
54	0xbe8f068b	-0.2793468
55	0xbda07ea8	-0.07836658
56	0xbe1cac20	-0.15300035
57	0x3c9c9010	0.019111663
58	0xba84e000	-0.0010137558
59	0xbe095f2b	-0.1341521
60	0x3d30aee8	0.043135554
61	0xbe02dbb3	-0.12779121
62	0x3e875d8b	0.26438555
63	0xbe818173	-0.25294074
64	0xbe08354c	-0.13301581
65	0xbe08c92a	-0.13357988
66	0xbe8e048a	-0.27737838
67	0x3e6553c2	0.22395232
68	0x3e6f7502	0.23384479
69	0xbc9f1940	-0.01942122
70	0xbca5e800	-0.020252228
71	0x3c9a4a00	0.018834114
72	0xbd77e23c	-0.06051849
73	0xbe64f898	-0.22360456
74	0xbd061188	-0.032731563
75	0xbc2b17a0	-0.010442644
76	0x3e4a355e	0.1974692
77	0xbc90c200	-0.017670631
78	0x3cd24000	0.025665283
79	0xbe21dbc6	-0.15806493
80	0x3e5988d0	0.21243596
81	0xbe239d6c	-0.1597802
82	0xbe63941b	-0.22224467
83	0xbd1f68ec	-0.03891842
84	0x3dc2446c	0.09485707
85	0x3e86652d	0.26249066
86	0x3e289b3e	0.1646547
87	0x3e374786	0.17898378
88	0x3e683c72	0.22679308
89	0x3db98840	0.09059191
90	0xbb033700	-0.0020021796
91	0x3c862600	0.016375542
92	0xbe2f2470	-0.17103744
93	0x3d772590	0.060338557
94	0x3e0f5fee	0.14001438
95	0x3d847144	0.06466916
96	0x3dfb7044	0.12277272
97	0x3e418618	0.18898809
98	0xbe15fefc	-0.1464805
99	0xbdf92162	-0.121645704
100	0x3e081094	0.13287574
101	0xbe0c4034	-0.13696367
102	0x3d37d198	0.04487762
103	0x3e8c9635	0.2745835
104	0x3e714a42	0.23563483
105	0xbe22e9cc	-0.15909499
106	0x3e6e3861	0.23263694
107	0x3e867ab9	0.26265505
108	0x3c2ddda1	0.0106119225
109	0xbdc890d9	-0.097932525
110	0x3cc15d20	0.023603976
111	0xbe92b6ec	-0.28655183
112	0xbe746c19	-0.23869361
113	0x3cfb401f	0.030670224
114	0xbe8f7835	-0.28021398
115	0xbe59636b	-0.21229331
116	0x3dd8eb93	0.10591807
117	0x3e7bf70f	0.24605964
118	0x3e4d4ec9	0.20049585
119	0xbdf2137e	-0.11820124
120	0xbdcccf6b	-0.10000499
121	0x3ea49a49	0.3214896
122	0xbc9f977f	-0.019481419
123	0x3ddd6c5b	0.10811683
124	0xbe04f162	-0.12982705
125	0xbbcddc78	-0.0062823854
126	0xbe47222c	-0.1944663
127	0xbeaa2dc5	-0.33238044
128	0xbe44c5c6	-0.1921607
129	0xbdadff9a	-0.08496018
130	0x400fa368	2.2443485
131	0xbfa3b16d	-1.2788521
132	0x40129f85	2.2909863
133	0x3fcde3a3	1.6085094
134	0x3f9c5c41	1.2215654
135	0xbfcc50fa	-1.5962212
136	0xbf61ff9a	-0.8828064
137	0xbf56cdad	-0.83907586
138	0xbfc80339	-1.5625983
139	0xbfa50573	-1.2892288
140	0xbdc94bee	-0.098289356
141	0x3fddb2c7	1.7320184
142	0x3faaad3f	1.333412
143	0x3f9fbded	1.2479836
144	0xbe1b4af4	-0.15165311
145	0x3fba177d	1.4538418
146	0xbfc6b45b	-1.552379
147	0xbfaaf022	-1.3354533
148	0x3f6d1f67	0.9262604
149	0x3fd5918a	1.668504
150	0xbd97d6b9	-0.07414002
151	0xbdc42830	-0.09577978
152	0xbf0cbc31	-0.5497466
153	0x3dcde555	0.10053507
154	0x3e2fcc93	0.17167883
155	0xc0d96f91	-6.794869
156	0x3c771d3b	0.015082653
157	0xbf04cdd4	-0.5187657
158	0x3f3d7491	0.7400599
159	0x3edf6313	0.43630275
160	0x3e7e6379	0.24842633
161	0xbd6aaac4	-0.05729176
162	0x3d9448e4	0.07240465
163	0xbe9832d6	-0.29726285
164	0xbede39ee	-0.43403572
165	0xbedc9083	-0.43079004
166	0xbe7dcaf6	-0.24784455
167	0xbf2bfd2f	-0.671832
168	0xbf415a87	-0.7552876
169	0xbf357f80	-0.70897675
170	0x3ec14b3d	0.37752715
171	0xbf9ec02e	-1.2402399
172	0x3f2dd090	0.67896366
173	0x3f2c222b	0.67239636
174	0xbf71caca	-0.94450057
175	0xbf39fe68	-0.7265382
176	0xbec1ac04	-0.3782655
177	0xbe94da5a	-0.2907284
178	0xbf27c331	-0.65532213
179	0xbf050bf3	-0.5197136
180	0xbebb22df	-0.36550042
181	0x4083be05	4.1169457
182	0xbe177299	-0.1478981
183	0x3f24b5dc	0.64339995
184	0x3f183c6f	0.59467214
185	0x3f74e68a	0.95664275
186	0xbeb0c8a2	-0.3452807
187	0x3db4bb19	0.088247485
188	0x3de4e411	0.11176313
189	0x3f281945	0.6566356
190	0x3dcf6f52	0.101286545
191	0x3f2f5d14	0.685014
192	0x3dd96afa	0.10616107
193	0x3e288f59	0.16460933
194	0xbd5b27fe	-0.053504936
195	0xbdb2e6f0	-0.08735454
196	0xbedd881a	-0.432679
197	0xbebecd5b	-0.3726605
198	0xbd734acb	-0.0593975
199	0x3e0cb921	0.13742496
200	0xbf2d0cef	-0.6759786
201	0xbe253526	-0.16133556
202	0xbe5020e4	-0.20325047
203	0xbe807e23	-0.25096235
204	0xbed04365	-0.40676418
205	0xbe4e7d1b	-0.20164911
206	0xbe87f672	-0.2655521
207	0x3f8c944a	1.0982754
208	0xbec23927	-0.3793423
209	0x3f396180	0.724144
210	0xbf534e56	-0.82541406
211	0xbdcc886c	-0.09986958
212	0xbf383e50	-0.7197008
213	0x3f48fd2e	0.7851132
214	0x3f2958dd	0.6615122
215	0x3f3404fe	0.7032012
216	0x3f30b71a	0.6902939
217	0x3f320945	0.69545394
218	0x3e6d6f47	0.2318698
219	0xbe11db66	-0.1424385
220	0xbe099abc	-0.13437933
221	0xbe604d9e	-0.21904609
222	0x3e457152	0.1928151
223	0xbed81205	-0.42201248
224	0xbe031e6d	-0.12804575
225	0x3d6c7ce5	0.057736296
226	0xbdde15b3	-0.108439825
227	0xbe368989	-0.17825903
228	0xbdbc5bed	-0.09197221
229	0xbcffb82a	-0.031215746
230	0xbe30123d	-0.17194457
231	0xbdcce96c	-0.10005459
232	0x3b256f3d	0.0025243305
233	0xbeaa6ab6	-0.3328454
234	0x3ed5778c	0.4169277
235	0xbf1734dc	-0.5906503
236	0xbf3d90e6	-0.7404922
237	0xbf4d180c	-0.8011482
238	0x3ebeb46d	0.3724703
239	0xbeaceb53	-0.33773288
240	0x3d84f78f	0.064925306
241	0xbf22baea	-0.6356646
242	0xbd885f77	-0.066588335
243	0xbf2a0137	-0.66408104
244	0xbc8b8370	-0.017030448
245	0xbe58d5ea	-0.21175352
246	0x3d737189	0.059434447
247	0xbe3f9bc8	-0.1871177
248	0xbdf04569	-0.11731989
249	0xbecc50f6	-0.39905518
250	0x3e94a3d3	0.29031238
251	0xbc57e9f2	-0.0131783355
252	0xbd31cbab	-0.043407124
253	0xbebc4842	-0.36773878
254	0xbea35340	-0.31899452
255	0xbe8582f6	-0.26076478

model_1/dense_4/MatMul f4 [20, 50]
0	0xbebf9a95	-0.37422624
1	0xbe815d4e	-0.25266498
2	0xbca5a7c0	-0.020221591
3	0x3e6925c0	0.22768307
4	0xba8f6e00	-0.0010942817
5	0xbd17650b	-0.036961596
6	0x3c07aa1d	0.008280304
7	0x3cc65ae2	0.024213258
8	0xbd25c706	-0.040473007
9	0xbe63db56	-0.22251639
10	0x3e0f2e45	0.13982494
11	0x3e94802e	0.29004043
12	0x3e6ad250	0.2293179
13	0x3e3300a4	0.17480713
14	0xbe49523d	-0.19660278
15	0x3e702ae8	0.23453867
16	0xbda3d38b	-0.07999333
17	0xbe3c43d6	-0.18385252
18	0xbeb5cd54	-0.35508215
19	0xbbe78994	-0.007065961
20	0x3d865f9b	0.06561204
21	0x3e7b3b54	0.2453435
22	0xbea67bc6	-0.32516307
23	0xbb49984c	-0.0030760942
24	0x3e36adea	0.1783978
25	0xbe84446e	-0.25833458
26	0x3d8018bd	0.062547185
27	0x3e313206	0.17304239
28	0xbc9c4b9e	-0.019079026
29	0x3c294f7b	0.010333891
30	0xbe56e9f2	-0.2098768
31	0xbdf13a12	-0.11778654
32	0x3dfc9e3a	0.12334867
33	0xbe2485b2	-0.16066626
34	0xbc7c7ea1	-0.01541105
35	0xbd91a52e	-0.07111584
36	0x3ef29721	0.47380927
37	0xbd9a43ce	-0.07532464
38	0x3b6b508d	0.0035906166
39	0xbc38db78	-0.011282794
40	0xbe75b9a5	-0.23996599
41	0x3e1e3c58	0.15452707
42	0xbd06e1c8	-0.032930166
43	0x3dcb85b1	0.09937609
44	0xbd176c36	-0.036968432
45	0x3c43a942	0.01194221
46	0xbc912d0f	-0.01772168
47	0x3b2825b4	0.0025657238
48	0x3dd3e7f0	0.10346973
49	0x3e58955d	0.21150728
50	0x3dfa6909	0.12227065
51	0x3e4745e2	0.19460252
52	0x3d78ffe0	0.060790896
53	0xbe374218	-0.17896307
54	0xbda6cef4	-0.08144942
55	0xbdf454c5	-0.11930231
56	0xbf134337	-0.57524437
57	0xbe374b6d	-0.17899866
58	0x3dfe61ac	0.12420973
59	0x3d542581	0.05179358
60	0x3d341769	0.04396764
61	0x3e38144c	0.17976493
62	0xbcfe7b10	-0.03106454
63	0x39643800	0.00021764636
64	0x3e5ddca2	0.21666196
65	0xbdd027d8	-0.101638496
66	0xbe80a247	-0.25123808
67	0x3e83b656	0.2572505
68	0x3e3da19f	0.18518685
69	0x3c76b78f	0.015058412
70	0x3d77c30e	0.060488753
71	0x3e948736	0.29009408
72	0xbe745736	-0.23861393
73	0xbdc9ebf8	-0.098594606
74	0x3ccfec29	0.025381165
75	0x3e805d56	0.2507121
76	0xbe89a1ce	-0.2688126
77	0x3e36b99c	0.17844242
78	0x3e694fef	0.22784398
79	0x3e062d42	0.13103202
80	0x3e0f6d03	0.14006428
81	0xbe47e566	-0.19521102
82	0x3dc8f1b3	0.098117255
83	0x3da7c680	0.08192158
84	0xbe79a37a	-0.24378768
85	0x3d44fb08	0.048090965
86	0xbbebcbce	-0.0071959263
87	0xbd25895a	-0.04041419
88	0x3e664a6e	0.2248933
89	0xbeae73d1	-0.34072736
90	0xbd87fffb	-0.06640621
91	0xbdb1cb96	-0.08681409
92	0xbe8bc6e0	-0.27300167
93	0x3daaaae4	0.08333376
94	0xbc16fc23	-0.0092153875
95	0xbe8cbbd1	-0.27487043
96	0x3ca91a1e	0.020642336
97	0xbe031958	-0.12802637
98	0x3e50cfb1	0.20391728
99	0x3e4f07e0	0.20217848
100	0x3e74a4b2	0.23890951
101	0xbe8b01cf	-0.27149817
102	0xbde76622	-0.11298777
103	0xbe47af1c	-0.19500393
104	0x3c6d60f0	0.014488444
105	0xbb64c799	-0.0034909009
106	0xbec0a0a2	-0.37622553
107	0xbdf27792	-0.118392125
108	0x3e22bafe	0.15891644
109	0x3ce5e481	0.02806306
110	0xbe71279e	-0.23550269
111	0x3e5110c6	0.20416555
112	0xbe0440d3	-0.12915353
113	0x3e615e78	0.22008693
114	0x3e0db175	0.13837226
115	0xbc9036e0	-0.017604291
116	0xbdb01577	-0.08597844
117	0xbd166878	-0.036720723
118	0xbe824547	-0.2544348
119	0x3e395d4e	0.18101999
120	0x3e6d9f07	0.23205195
121	0xbd5c6cc8	-0.05381468
122	0xbe33d711	-0.1756251
123	0xbc0ffcbb	-0.008788283
124	0x3e2dbb6d	0.16966029
125	0x3e3a195b	0.18173735
126	0x3e92899b	0.2862061
127	0x3e06072a	0.1308867
128	0xbdc91c84	-0.09819892
129	0xbdfcb242	-0.123386875
130	0xbd0a0978	-0.033700436
131	0xbe034050	-0.12817502
132	0xbea23b9c	-0.31686103
133	0xbcadae20	-0.021201193
134	0xbeb33313	-0.34999904
135	0x3e6c3544	0.23067194
136	0xbe6e0211	-0.23242976
137	0x3e1cbcae	0.1530635
138	0xbe91260f	-0.2834935
139	0x3bb75977	0.005595382
140	0x3d17d48c	0.037067935
141	0xbd61a0e1	-0.055085067
142	0xbd6de8ce	-0.058083348
143	0xbe1c5833	-0.1526802
144	0x3e1f22be	0.15540597
145	0x3e328fc1	0.1743765
146	0x3e0e5c59	0.13902415
147	0x3d164e89	0.03669599
148	0xbd43cf40	-0.04780507
149	0x3e743db2	0.2385166
150	0xbe1d0c8d	-0.15336819
151	0x3dbe206d	0.092835285
152	0xbde03b18	-0.10948771
153	0xbe8e6b8f	-0.27816436
154	0x3e8c8b75	0.27450147
155	0xbe13a95a	-0.14420071
156	0xbe60f395	-0.21967919
157	0xbe79d797	-0.24398647
158	0x3dfd2bd2	0.12361874
159	0xbc55bdc1	-0.013045729
160	0x3dc10311	0.09424413
161	0xbdf9a990	-0.121905446
162	0xbd38af80	-0.045089245
163	0xbdb036e2	-0.08604218
164	0xbc76af51	-0.015056447
165	0x3dc933e8	0.098243535
166	0x3d88d007	0.06680303
167	0x3d94bf18	0.07263011
168	0xbdedb515	-0.11606804
169	0xbe76f28d	-0.24115963
170	0xbd8a88f9	-0.06764407
171	0xbe786c83	-0.24260144
172	0x3c881eaa	0.016616184
173	0x3c91d3f6	0.017801266
174	0x3e6515d2	0.22371605
175	0x3e5d7ce7	0.21629678
176	0xbe266238	-0.16248405
177	0x3c95b680	0.0182755
178	0x3dfe9ade	0.12431882
179	0xbe9923bb	-0.29910073
180	0xbdc18b00	-0.0945034
181	0xbe15dbae	-0.14634582
182	0x3e5465cf	0.20741962
183	0xbc910ed0	-0.017707258
184	0xbe7d08c3	-0.24710374
185	0xbd0b2961	-0.03397501
186	0xbeab8918	-0.33503032
187	0xbe3529e8	-0.17691767
188	0x3db676c8	0.089093745
189	0x3dbdde29	0.09270889
190	0xbd890472	-0.06690301
191	0x3e6d8af4	0.23197538
192	0xbd94fedd	-0.07275174
193	0x3e3e5385	0.18586548
194	0xbd901332	-0.07034911
195	0xbdf04218	-0.117313564
196	0x3d1cd4f4	0.038289025
197	0xbe59a1c5	-0.21253116
198	0x3e19e741	0.15029623
199	0x3d650156	0.055909477
200	0xbcf2477a	-0.029575098
201	0xbd842b3d	-0.064535595
202	0x3d8c6ed8	0.06857079
203	0x3dd080bc	0.10180804
204	0x3e14b6cf	0.14522861
205	0xbddd0a3b	-0.10792967
206	0xbe3d6038	-0.18493736
207	0xbe9a6a31	-0.30159143
208	0x3e246f0d	0.16057988
209	0x3d8bf7a2	0.068343416
210	0xbd1c9428	-0.03822723
211	0x3d6d5f58	0.057952255
212	0xbdfb8644	-0.122814685
213	0x3e2996cc	0.1656143
214	0x3c6a8a84	0.014315251
215	0x3d8693d4	0.06571165
216	0xbeb477a8	-0.3524754
217	0x3dceb750	0.10093558
218	0xbe10ee1d	-0.14153333
219	0x3ca3fe8c	0.020018838
220	0xbd5ae0ad	-0.053436924
221	0xbe8b6e65	-0.27232662
222	0x3e90808f	0.28223082
223	0xbdccceed	-0.100004055
224	0xbe598f3c	-0.21246046
225	0xbc78db1e	-0.01518896
226	0xbe11b6bd	-0.14229865
227	0x3ddc2674	0.10749522
228	0xbd0b2491	-0.03397042
229	0x3e15444d	0.14576836
230	0xbe741d4e	-0.23839304
231	0xbdb93c9f	-0.09044766
232	0xbc87d83a	-0.016582597
233	0xbd62b5a0	-0.055348992
234	0xbe2ec449	-0.17067064
235	0xbd9f028e	-0.07764159
236	0xba82562e	-0.0009943896
237	0x3c10e36b	0.008843283
238	0x3c8c8b06	0.017156135
239	0xbe9a0adb	-0.30086407
240	0x3db3b5ec	0.08774933
241	0x3e6b15ef	0.22957586
242	0xbd2b391e	-0.041802518
243	0xbe7b8a0d	-0.24564381
244	0xbe318af4	-0.17338163
245	0x3ddca32c	0.1077331
246	0xbdd95b66	-0.10613136
247	0xbde0e4f0	-0.10981166
248	0xbdf2c85e	-0.11854623
249	0x3e45d453	0.19319277
250	0xbdd391b5	-0.10330526
251	0x3dd39f14	0.10333076
252	0xbd6c3a5c	-0.057672843
253	0xbdca2872	-0.098709956
254	0x3dd27370	0.10275924
255	0xbec862d2	-0.39137894

model_1/dense_5/MatMul f4 [1, 20]
0	0x3e5150c6	0.20440969
1	0x3c1fc86d	0.009752375
2	0x3ad50fd4	0.0016255328
3	0xbcafde27	-0.021468235
4	0x3e020c9f	0.12700127
5	0x3e08a0b5	0.13342555
6	0xbc2a0015	-0.010375996
7	0xbe775a6e	-0.2415559
8	0xbd4f4373	-0.050601434
9	0x3f04c43f	0.5186195
10	0xbc97d581	-0.018534424
11	0xbd7d3057	-0.06181368
12	0xbe752ad7	-0.23942123
13	0x3bf70c88	0.0075393356
14	0xbe036394	-0.12830955
15	0x3d2f0f96	0.042739473
16	0x3d298218	0.041383833
17	0x3dc257ea	0.094894245
18	0xbdf4a402	-0.119453445
19	0xbcf62998	-0.03004913
